…
libpng warning: iCCP: known incorrect sRGB profile
libpng warning: iCCP: known incorrect sRGB profile
libpng warning: iCCP: known incorrect sRGB profile
libpng warning: iCCP: known incorrect sRGB profile
libpng warning: iCCP: known incorrect sRGB profile

**************************************************  Model  **************************************************

Model: "sequential_1"
_________________________________________________________________
Layer (type)                 Output Shape              Param #
=================================================================
flatten_1 (Flatten)          (None, 36)                0
_________________________________________________________________
dense_1 (Dense)              (None, 32)                1184
_________________________________________________________________
activation_1 (Activation)    (None, 32)                0
_________________________________________________________________
dense_2 (Dense)              (None, 32)                1056
_________________________________________________________________
activation_2 (Activation)    (None, 32)                0
_________________________________________________________________
dense_3 (Dense)              (None, 32)                1056
_________________________________________________________________
activation_3 (Activation)    (None, 32)                0
_________________________________________________________________
dense_4 (Dense)              (None, 6)                 198
_________________________________________________________________
activation_4 (Activation)    (None, 6)                 0
=================================================================
Total params: 3,494
Trainable params: 3,494
Non-trainable params: 0
_________________________________________________________________
None
2021-02-24 14:08:07.743066: I tensorflow/core/platform/cpu_feature_guard.cc:142] Your CPU supports instructions that this TensorFlow binary was not compiled to use: AVX2

**************************************************  History  **************************************************
…
