**************************************************  FloodIt  **************************************************
action_space      : Discrete(6)
observation_space : Box(0.0, 5.0, (30, 30), float32)
reward_range      : (-inf, inf)

**************************************************  Model  **************************************************

Model: "sequential_5"
_________________________________________________________________
Layer (type)                 Output Shape              Param #   
=================================================================
reshape_2 (Reshape)          (None, 30, 30, 1)         0         
_________________________________________________________________
conv2d_6 (Conv2D)            (None, 28, 28, 64)        640       
_________________________________________________________________
conv2d_7 (Conv2D)            (None, 26, 26, 32)        18464     
_________________________________________________________________
flatten_3 (Flatten)          (None, 21632)             0         
_________________________________________________________________
dropout_3 (Dropout)          (None, 21632)             0         
_________________________________________________________________
dense_10 (Dense)             (None, 32)                692256    
_________________________________________________________________
dense_11 (Dense)             (None, 6)                 198       
=================================================================
Total params: 711,558
Trainable params: 711,558
Non-trainable params: 0
_________________________________________________________________
None

**************************************************  History  **************************************************
Training for 1000000 steps ...
Interval 1 (0 steps performed)
10000/10000 [==============================] - 407s 41ms/step - reward: -0.3550
…
