**************************************************  FloodIt  **************************************************
action_space      : Discrete(6)
observation_space : Box(0.0, 5.0, (30, 30), float32)
reward_range      : (-inf, inf)

**************************************************  Model  **************************************************

Model: "sequential_2"
_________________________________________________________________
Layer (type)                 Output Shape              Param #   
=================================================================
flatten_2 (Flatten)          (None, 900)               0         
_________________________________________________________________
dense_12 (Dense)             (None, 64)                57664     
_________________________________________________________________
activation_12 (Activation)   (None, 64)                0         
_________________________________________________________________
dense_13 (Dense)             (None, 128)               8320      
_________________________________________________________________
activation_13 (Activation)   (None, 128)               0         
_________________________________________________________________
dense_14 (Dense)             (None, 128)               16512     
_________________________________________________________________
activation_14 (Activation)   (None, 128)               0         
_________________________________________________________________
dense_15 (Dense)             (None, 128)               16512     
_________________________________________________________________
activation_15 (Activation)   (None, 128)               0         
_________________________________________________________________
dense_16 (Dense)             (None, 64)                8256      
_________________________________________________________________
activation_16 (Activation)   (None, 64)                0         
_________________________________________________________________
dense_17 (Dense)             (None, 6)                 390       
_________________________________________________________________
activation_17 (Activation)   (None, 6)                 0         
=================================================================
Total params: 107,654
Trainable params: 107,654
Non-trainable params: 0
_________________________________________________________________
None

**************************************************  History  **************************************************
Training for 1000000 steps ...
Interval 1 (0 steps performed)
10000/10000 [==============================] - 237s 24ms/step - reward: -0.3344
…
