…
D:\Anaconda\envs\RL\lib\site-packages\tensorboard\compat\tensorflow_stub\dtypes.py:550: FutureWarning: Passing (type, 1) or '1type' as a synonym of type is deprecated; in a future version of numpy, it will be understood as (type, (1,)) / '(1,)type'.
  np_resource = np.dtype([("resource", np.ubyte, 1)])
pygame 2.0.1 (SDL 2.0.14, Python 3.7.9)
Hello from the pygame community. https://www.pygame.org/contribute.html

**************************************************  Model  **************************************************

Model: "sequential_1"
_________________________________________________________________
Layer (type)                 Output Shape              Param #
=================================================================
flatten_1 (Flatten)          (None, 36)                0
_________________________________________________________________
dense_1 (Dense)              (None, 64)                2368
_________________________________________________________________
activation_1 (Activation)    (None, 64)                0
_________________________________________________________________
dense_2 (Dense)              (None, 128)               8320
_________________________________________________________________
activation_2 (Activation)    (None, 128)               0
_________________________________________________________________
dense_3 (Dense)              (None, 128)               16512
_________________________________________________________________
activation_3 (Activation)    (None, 128)               0
_________________________________________________________________
dense_4 (Dense)              (None, 128)               16512
_________________________________________________________________
activation_4 (Activation)    (None, 128)               0
_________________________________________________________________
dense_5 (Dense)              (None, 64)                8256
_________________________________________________________________
activation_5 (Activation)    (None, 64)                0
_________________________________________________________________
dense_6 (Dense)              (None, 6)                 390
_________________________________________________________________
activation_6 (Activation)    (None, 6)                 0
=================================================================
Total params: 52,358
Trainable params: 52,358
Non-trainable params: 0
_________________________________________________________________
None
2021-02-24 20:44:43.271858: I tensorflow/core/platform/cpu_feature_guard.cc:142] Your CPU supports instructions that this TensorFlow binary was not compiled to use: AVX2

**************************************************  History  **************************************************
…
