**************************************************  FloodIt  **************************************************
action_space      : Discrete(6)
observation_space : Box(0.0, 5.0, (30, 30), float32)
reward_range      : (-inf, inf)

**************************************************  Model  **************************************************

Model: "sequential_6"
_________________________________________________________________
Layer (type)                 Output Shape              Param #   
=================================================================
flatten_6 (Flatten)          (None, 900)               0         
_________________________________________________________________
dense_36 (Dense)             (None, 64)                57664     
_________________________________________________________________
activation_36 (Activation)   (None, 64)                0         
_________________________________________________________________
dense_37 (Dense)             (None, 128)               8320      
_________________________________________________________________
activation_37 (Activation)   (None, 128)               0         
_________________________________________________________________
dense_38 (Dense)             (None, 128)               16512     
_________________________________________________________________
activation_38 (Activation)   (None, 128)               0         
_________________________________________________________________
dense_39 (Dense)             (None, 128)               16512     
_________________________________________________________________
activation_39 (Activation)   (None, 128)               0         
_________________________________________________________________
dense_40 (Dense)             (None, 64)                8256      
_________________________________________________________________
activation_40 (Activation)   (None, 64)                0         
_________________________________________________________________
dense_41 (Dense)             (None, 6)                 390       
_________________________________________________________________
activation_41 (Activation)   (None, 6)                 0         
=================================================================
Total params: 107,654
Trainable params: 107,654
Non-trainable params: 0
_________________________________________________________________
None

**************************************************  History  **************************************************
Training for 1000000 steps ...
Interval 1 (0 steps performed)
10000/10000 [==============================] - 251s 25ms/step - reward: -0.3506
…
