…
Hello from the pygame community. https://www.pygame.org/contribute.html



**************************************************  FloodIt  **************************************************
action_space      : Discrete(6)
observation_space : Box(0.0, 5.0, (30, 30), float32)
reward_range      : (-inf, inf)




**************************************************  Model  **************************************************

Model: "sequential"
_________________________________________________________________
Layer (type)                 Output Shape              Param #
=================================================================
reshape (Reshape)            (None, 30, 30, 1)         0
_________________________________________________________________
conv2d (Conv2D)              (None, 28, 28, 32)        320
_________________________________________________________________
conv2d_1 (Conv2D)            (None, 26, 26, 32)        9248
_________________________________________________________________
flatten (Flatten)            (None, 21632)             0
_________________________________________________________________
dense (Dense)                (None, 128)               2769024
_________________________________________________________________
dense_1 (Dense)              (None, 64)                8256
_________________________________________________________________
dense_2 (Dense)              (None, 64)                4160
_________________________________________________________________
dense_3 (Dense)              (None, 6)                 390
=================================================================
Total params: 2,791,398
Trainable params: 2,791,398
Non-trainable params: 0
_________________________________________________________________
None
2021-03-01 13:35:57.133160: I tensorflow/stream_executor/platform/default/dso_loader.cc:48] Successfully opened dynamic library nvcuda.dll
2021-03-01 13:35:57.172292: I tensorflow/core/common_runtime/gpu/gpu_device.cc:1716] Found device 0 with properties:
…
Hello from the pygame community. https://www.pygame.org/contribute.html



**************************************************  FloodIt  **************************************************
action_space      : Discrete(6)
observation_space : Box(0.0, 5.0, (6, 6), float32)
reward_range      : (-inf, inf)




**************************************************  Model  **************************************************

Model: "sequential"
_________________________________________________________________
Layer (type)                 Output Shape              Param #
=================================================================
reshape (Reshape)            (None, 6, 6, 1)           0
_________________________________________________________________
conv2d (Conv2D)              (None, 4, 4, 32)          320
_________________________________________________________________
conv2d_1 (Conv2D)            (None, 2, 2, 32)          9248
_________________________________________________________________
flatten (Flatten)            (None, 128)               0
_________________________________________________________________
dense (Dense)                (None, 128)               16512
_________________________________________________________________
dense_1 (Dense)              (None, 64)                8256
_________________________________________________________________
dense_2 (Dense)              (None, 64)                4160
_________________________________________________________________
dense_3 (Dense)              (None, 6)                 390
=================================================================
Total params: 38,886
Trainable params: 38,886
Non-trainable params: 0
_________________________________________________________________
None
2021-03-01 13:45:19.516320: I tensorflow/stream_executor/platform/default/dso_loader.cc:48] Successfully opened dynamic library nvcuda.dll
2021-03-01 13:45:19.559175: I tensorflow/core/common_runtime/gpu/gpu_device.cc:1716] Found device 0 with properties:
…
